> device: cuda:2
> Loading DataSet from data/EEG_age_data_s16/, given 1776 samples
> Training batches: 205, Validation batches: 52
> Initializing the Training Model: BAPM2
> Model Structure:
BAPM2(
  (stCNN): StCNN(
    (secGrabber): Conv1d(1, 5, kernel_size=(1024,), stride=(256,))
    (bn): BatchNorm1d(5, eps=1e-05, momentum=0.1, affine=True, track_running_stats=True)
  )
  (spatAttLayer): SpatAttLayer(
    (GaANBlk): MultiHeadPwGaANLayer(
      (pwGaAN): PwGaANLayer(
        (Wa): Linear(in_features=5, out_features=5, bias=False)
        (att_out_fc_l): Linear(in_features=5, out_features=1, bias=False)
        (att_out_fc_r): Linear(in_features=5, out_features=1, bias=False)
        (gate_fc_l): Linear(in_features=5, out_features=1, bias=False)
        (gate_fc_m): Linear(in_features=5, out_features=1, bias=False)
        (gate_fc_r): Linear(in_features=5, out_features=1, bias=False)
        (Wg): Linear(in_features=5, out_features=5, bias=False)
      )
    )
    (proj_fc): Linear(in_features=5, out_features=5, bias=False)
    (bn): BatchNorm2d(10, eps=1e-05, momentum=0.1, affine=True, track_running_stats=True)
  )
  (linear_time): Linear(in_features=57, out_features=1, bias=True)
  (tranLayer): TranLayer(
    (linear_nodes): Linear(in_features=63, out_features=1, bias=True)
    (linear_embed): Linear(in_features=10, out_features=1, bias=True)
  )
)
> Model sent to cuda:2
> Using SmoothL1Loss as the Loss Function.
> Constructing the Optimizer: ADAM

learning_rate = 0.01, epochs = 100, num_workers = 50
eval_freq = 5, batch_size = 5, optimizer = ADAM
folds = 5, valid_fold_id = -1

Start Training!
------------------------------------------------------------------------
Training Round 1: loss = 13.576729, time_cost = 26.3443 sec (0.0257 sec per sample), MAE = 14.0672, RMSE = 18.2257, MAPE = 0.3983
…
