> device: cuda:0
> Loading model_save/20211222_01_02_30.pth
> Model Structure:
BrainAgePredictionModel(
  (stCNN): StCNN(
    (secGrabber): Conv1d(1, 5, kernel_size=(1024,), stride=(256,))
    (bn): BatchNorm1d(5, eps=1e-05, momentum=0.1, affine=True, track_running_stats=True)
  )
  (spatAttLayer): SpatAttLayer(
    (GaANBlk): MultiHeadPwGaANLayer(
      (pwGaAN): PwGaANLayer(
        (Wa): Linear(in_features=5, out_features=5, bias=False)
        (att_out_fc_l): Linear(in_features=5, out_features=1, bias=False)
        (att_out_fc_r): Linear(in_features=5, out_features=1, bias=False)
        (gate_fc_l): Linear(in_features=5, out_features=1, bias=False)
        (gate_fc_m): Linear(in_features=5, out_features=1, bias=False)
        (gate_fc_r): Linear(in_features=5, out_features=1, bias=False)
        (Wg): Linear(in_features=5, out_features=5, bias=False)
      )
    )
    (proj_fc): Linear(in_features=5, out_features=5, bias=False)
    (bn): BatchNorm2d(10, eps=1e-05, momentum=0.1, affine=True, track_running_stats=True)
  )
  (tempLayer): TempLayer(
    (gru): GRU(10, 10)
    (bn): BatchNorm1d(10, eps=1e-05, momentum=0.1, affine=True, track_running_stats=True)
  )
  (tranLayer): TranLayer(
    (linear_nodes): Linear(in_features=63, out_features=1, bias=True)
    (linear_embed): Linear(in_features=10, out_features=1, bias=True)
  )
)
> Model sent to cuda:0
> Loading DataSet from data/EEG_age_data_s12/, given 1332 samples, using a customized graph
> Validation batches: 39, Test batches: 48
Validation: MAE = 9.0262, RMSE = 11.6083, MAPE = 0.2768
Test: MAE = 8.9291, RMSE = 11.1658, MAPE = 0.2976
> Evaluation finished.
